…
\n\n    def forward(self, x):\n        x = self.main(x)\n        return x\n\nLet’s make an instance of our new class and confirm it has 10 parameters (6 weights + 4 biases):\n\nmodel = nonlinRegression(1, 3, 1)\nprint(summary(model, (BATCH_SIZE,1)))\nsummary(model, (BATCH_SIZE,1), verbose = 2);\n\n==========================================================================================\nLayer (type:depth-idx)                   Output Shape              Param #\n==========================================================================================\nnonlinRegression                         [50, 1]                   --\n├─Sequential: 1-1                        [50, 1]                   --\n│    └─Linear: 2-1                       [50, 3]                   6\n│    └─Sigmoid: 2-2                      [50, 3]                   --\n│    └─Linear: 2-3                       [50, 1]                   4\n==========================================================================================\nTotal params: 10\nTrainable params: 10\nNon-trainable params: 0\nTotal mult-adds (M): 0.00\n==========================================================================================\nInput size (MB): 0.00\nForward/backward pass size (MB): 0.00\nParams size (MB): 0.00\nEstimated Total Size (MB): 0.00\n==========================================================================================\n==========================================================================================\nLayer (type:depth-idx)                   Output Shape              Param #\n==========================================================================================\nnonlinRegression                         [50, 1]                   --\n├─Sequential: 1-1                        [50, 1]                   --\n│    └─0.weight                                                    ├─3\n│    └─0.bias                                                      ├─3\n│    └─2.weight                                                    ├─3\n│    └─2.bias                                                      └─1\n│    └─Linear: 2-1                       [50, 3]                   6\n│    │    └─weight                                                 ├─3\n│    │    └─bias                                                   └─3\n│    └─Sigmoid: 2-2                      [50, 3]                   --\n│    └─Linear: 2-3                       [50, 1]                   4\n│    │    └─weight                                                 ├─3\n│    │    └─bias                                                   └─1\n==========================================================================================\nTotal params: 10\nTrainable params: 10\nNon-trainable params: 0\nTotal mult-adds (M): 0.00\n======================================================================
…
 batch_size=BATCH_SIZE, shuffle=True)\nplot_classification_2d(X, y)\n\n\n                                                \n\n\nLet’s train this model:\n\nBATCH_SIZE\n\n50\n\n\n\nmodel = multiClassifier(2, 5, 4)\n\nprint(summary(model, (BATCH_SIZE,2)))\nsummary(model, (BATCH_SIZE,2), verbose=2);\n\n==========================================================================================\nLayer (type:depth-idx)                   Output Shape              Param #\n==========================================================================================\nmultiClassifier                          [50, 4]                   --\n├─Sequential: 1-1                        [50, 4]                   --\n│    └─Linear: 2-1                       [50, 5]                   15\n│    └─ReLU: 2-2                         [50, 5]                   --\n│    └─Linear: 2-3                       [50, 4]                   24\n==========================================================================================\nTotal params: 39\nTrainable params: 39\nNon-trainable params: 0\nTotal mult-adds (M): 0.00\n==========================================================================================\nInput size (MB): 0.00\nForward/backward pass size (MB): 0.00\nParams size (MB): 0.00\nEstimated Total Size (MB): 0.00\n==========================================================================================\n==========================================================================================\nLayer (type:depth-idx)                   Output Shape              Param #\n==========================================================================================\nmultiClassifier                          [50, 4]                   --\n├─Sequential: 1-1                        [50, 4]                   --\n│    └─0.weight                                                    ├─10\n│    └─0.bias                                                      ├─5\n│    └─2.weight                                                    ├─20\n│    └─2.bias                                                      └─4\n│    └─Linear: 2-1                       [50, 5]                   15\n│    │    └─weight                                                 ├─10\n│    │    └─bias                                                   └─5\n│    └─ReLU: 2-2                         [50, 5]                   --\n│    └─Linear: 2-3                       [50, 4]                   24\n│    │    └─weight                                                 ├─20\n│    │    └─bias                                                   └─4\n==========================================================================================\nTotal params: 39\nTrainable params: 39\nNon-trainable params: 0\nTotal mult-adds (M): 0.00\n=====================================================================
…
s=3, out_channels=2, kernel_size=(3, 3), padding=1),\n            torch.nn.ReLU(),\n            torch.nn.Flatten(),\n            torch.nn.Linear(20000, 1)\n        )\n\n    def forward(self, x):\n        out = self.main(x)\n        return out\n\n\nmodel = CNN()\nsummary(model, (1, 1, 100, 100))\n\n==========================================================================================\nLayer (type:depth-idx)                   Output Shape              Param #\n==========================================================================================\nCNN                                      [1, 1]                    --\n├─Sequential: 1-1                        [1, 1]                    --\n│    └─Conv2d: 2-1                       [1, 3, 100, 100]          30\n│    └─ReLU: 2-2                         [1, 3, 100, 100]          --\n│    └─Conv2d: 2-3                       [1, 2, 100, 100]          56\n│    └─ReLU: 2-4                         [1, 2, 100, 100]          --\n│    └─Flatten: 2-5                      [1, 20000]                --\n│    └─Linear: 2-6                       [1, 1]                    20,001\n==========================================================================================\nTotal params: 20,087\nTrainable params: 20,087\nNon-trainable params: 0\nTotal mult-adds (M): 0.88\n==========================================================================================\nInput size (MB): 0.04\nForward/backward pass size (MB): 0.40\nParams size (MB): 0.08\nEstimated Total Size (MB): 0
…
=1),\n            torch.nn.ReLU(),\n            torch.nn.MaxPool2d(mp_kernel_size),\n            torch.nn.Flatten(),\n            torch.nn.Linear(1250, 1)\n        )\n\n    def forward(self, x):\n        out = self.main(x)\n        return out\n\n\nmodel = CNN()\nsummary(model, (1, 1, 100, 100))\n\n==========================================================================================\nLayer (type:depth-idx)                   Output Shape              Param #\n==========================================================================================\nCNN                                      [1, 1]                    --\n├─Sequential: 1-1                        [1, 1]                    --\n│    └─Conv2d: 2-1                       [1, 3, 100, 100]          30\n│    └─ReLU: 2-2                         [1, 3, 100, 100]          --\n│    └─MaxPool2d: 2-3                    [1, 3, 50, 50]            --\n│    └─Conv2d: 2-4                       [1, 2, 50, 50]            56\n│    └─ReLU: 2-5                         [1, 2, 50, 50]            --\n│    └─MaxPool2d: 2-6                    [1, 2, 25, 25]            --\n│    └─Flatten: 2-7                      [1, 1250]                 --\n│    └─Linear: 2-8                       [1, 1]                    1,251\n==========================================================================================\nTotal params: 1,337\nTrainable params: 1,337\nNon-trainable params: 0\nTotal mult-adds (M): 0.44\n==========================================================================================\nInput size (MB): 0.04\nForward/backward pass size (MB): 0.28\nParams size (MB): 0.01\nEstimated Total Size (MB): 0.33\n==========================================================================================\n\n\nWe reduced that last layer to 1,251 parameters. Nice job!"
…
n            conv_block(3, 3),\n            conv_block(3, 3),\n            torch.nn.Flatten(),\n            torch.nn.Linear(49152, 1)\n        )\n        \n    def forward(self, x):\n        out = self.main(x)\n        return out\n\n\nmodel = NN(input_size=128*128)\nsummary(model, (1, 128*128))\n\n==========================================================================================\nLayer (type:depth-idx)                   Output Shape              Param #\n==========================================================================================\nNN                                       [1, 1]                    --\n├─Sequential: 1-1                        [1, 1]                    --\n│    └─Sequential: 2-1                   [1, 256]                  --\n│    │    └─Linear: 3-1                  [1, 256]                  4,194,560\n│    │    └─ReLU: 3-2                    [1, 256]                  --\n│    └─Sequential: 2-2                   [1, 128]                  --\n│    │    └─Linear: 3-3                  [1, 128]                  32,896\n│    │    └─ReLU: 3-4                    [1, 128]                  --\n│    └─Sequential: 2-3                   [1, 64]                   --\n│    │    └─Linear: 3-5                  [1, 64]                   8,256\n│    │    └─ReLU: 3-6                    [1, 64]                   --\n│    └─Sequential: 2-4                   [1, 16]                   --\n│    │    └─Linear: 3-7                  [1, 16]                   1,040\n│    │    └─ReLU: 3-8                    [1, 16]                   --\n│    └─Linear: 2-5                       [1, 1]                    17\n==========================================================================================\nTotal params: 4,236,769\nTrainable params: 4,236,769\nNon-trainable params: 0\nTotal mult-adds (M): 4.24\n==========================================================================================\nInput size (MB): 0.07\nForward/backward pass size (MB): 0.00\nParams size (MB): 16.95\nEstimated Total Size (MB): 17.02\n==========================================================================================\n\n\n\nmodel = CNN(input_channels=1)\nsummary(model, (1, 1, 128, 128))\n\n==========================================================================================\nLayer (type:depth-idx)                   Output Shape              Param #\n==========================================================================================\nCNN                                      [1, 1]                    --\n├─Sequential: 1-1                        [1, 1]                    --\n│    └─Sequential: 2-1                   [1, 3, 128, 128]          --\n│    │    └─Conv2d: 3-1                  [1, 3, 128, 128]          30\n│    │    └─ReLU: 3-2                    [1, 3, 128, 128]          --\n│    └─Sequential: 2-2                   [1, 3, 128, 128]          --\n│    │    └─Conv2d: 3-3                  [1, 3, 128, 128]          84\n│    │    └─ReLU: 3-4                    [1, 3, 128, 128]          --\n│    └─Sequential: 2-3                   [1, 3, 128, 128]          --\n│    │    └─Conv2d: 3-5                  [1, 3, 128, 128]          84\n│    │    └─ReLU: 3-6                    [1, 3, 128, 128]          --\n│    └─Sequential: 2-4                   [1, 3, 128, 128]          --\n│    │    └─Conv2d: 3-7                  [1, 3, 128, 128]          84\n│    │    └─ReLU: 3-8                    [1, 3, 128, 128]          --\n│    └─Sequential: 2-5                   [1, 3, 128, 128]          --\n│    │    └─Conv2d: 3-9                  [1, 3, 128, 128]          84\n│    │    └─ReLU: 3-10                   [1, 3, 128, 128]          --\n│    └─Flatten: 2-6                      [1, 49152]                --\n│    └─Linear: 2-7                       [1, 1]                    49,153\n==========================================================================================\nTotal params: 49,519\nTrainable params: 49,519\nNon-trainable params: 0\nTotal mult-adds (M): 6.05\n==========================================================================================\nInput size (MB): 0.07\nForward/backward pass size (MB): 1.97\nParams size (MB): 0.20\nEstimated Total Size (MB): 2.23\n==========================================================================================\n\n\nWe don’t even have any pooling and our CNN still has a “meager” 49,519 parameters vs 4,236,769 for the fully-connected network. This is a somewhat arbitray comparison but it proves my point."
…
